…
            "Downloading data from https://storage.googleapis.com/tensorflow/keras-applications/vgg16/vgg16_weights_tf_dim_ordering_tf_kernels.h5\n",
            "553467904/553467096 [==============================] - 11s 0us/step\n",
            "Model: \"vgg16\"\n",
            "_________________________________________________________________\n",
            "Layer (type)                 Output Shape              Param #   \n",
            "=================================================================\n",
            "input_1 (InputLayer)         [(None, 224, 224, 3)]     0         \n",
            "_________________________________________________________________\n",
            "block1_conv1 (Conv2D)        (None, 224, 224, 64)      1792      \n",
            "_________________________________________________________________\n",
            "block1_conv2 (Conv2D)        (None, 224, 224, 64)      36928     \n",
            "_________________________________________________________________\n",
            "block1_pool (MaxPooling2D)   (None, 112, 112, 64)      0         \n",
            "_________________________________________________________________\n",
            "block2_conv1 (Conv2D)        (None, 112, 112, 128)     73856     \n",
            "_________________________________________________________________\n",
            "block2_conv2 (Conv2D)        (None, 112, 112, 128)     147584    \n",
            "_________________________________________________________________\n",
            "block2_pool (MaxPooling2D)   (None, 56, 56, 128)       0         \n",
            "_________________________________________________________________\n",
            "block3_conv1 (Conv2D)        (None, 56, 56, 256)       295168    \n",
            "_________________________________________________________________\n",
            "block3_conv2 (Conv2D)        (None, 56, 56, 256)       590080    \n",
            "_________________________________________________________________\n",
            "block3_conv3 (Conv2D)        (None, 56, 56, 256)       590080    \n",
            "_________________________________________________________________\n",
            "block3_pool (MaxPooling2D)   (None, 28, 28, 256)       0         \n",
            "_________________________________________________________________\n",
            "block4_conv1 (Conv2D)        (None, 28, 28, 512)       1180160   \n",
            "_________________________________________________________________\n",
            "block4_conv2 (Conv2D)        (None, 28, 28, 512)       2359808   \n",
            "_________________________________________________________________\n",
            "block4_conv3 (Conv2D)        (None, 28, 28, 512)       2359808   \n",
            "_________________________________________________________________\n",
            "block4_pool (MaxPooling2D)   (None, 14, 14, 512)       0         \n",
            "_________________________________________________________________\n",
            "block5_conv1 (Conv2D)        (None, 14, 14, 512)       2359808   \n",
            "_________________________________________________________________\n",
            "block5_conv2 (Conv2D)        (None, 14, 14, 512)       2359808   \n",
            "_________________________________________________________________\n",
            "block5_conv3 (Conv2D)        (None, 14, 14, 512)       2359808   \n",
            "_________________________________________________________________\n",
            "block5_pool (MaxPooling2D)   (None, 7, 7, 512)         0         \n",
            "_________________________________________________________________\n",
            "flatten (Flatten)            (None, 25088)             0         \n",
            "_________________________________________________________________\n",
            "fc1 (Dense)                  (None, 4096)              102764544 \n",
            "_________________________________________________________________\n",
            "fc2 (Dense)                  (None, 4096)              16781312  \n",
            "_________________________________________________________________\n",
            "predictions (Dense)          (None, 1000)              4097000   \n",
            "=================================================================\n",
            "Total params: 138,357,544\n",
            "Trainable params: 138,357,544\n",
            "Non-trainable params: 0\n",
            "_________________________________________________________________\n"
          ],
          "name": "stdout"
        }
      ]
    },
    {
      "cell_type": "code",
…
            "Downloading data from https://storage.googleapis.com/tensorflow/keras-applications/vgg16/vgg16_weights_tf_dim_ordering_tf_kernels_notop.h5\n",
            "58892288/58889256 [==============================] - 1s 0us/step\n",
            "Model: \"vgg16\"\n",
            "_________________________________________________________________\n",
            "Layer (type)                 Output Shape              Param #   \n",
            "=================================================================\n",
            "input_2 (InputLayer)         [(None, 224, 224, 3)]     0         \n",
            "_________________________________________________________________\n",
            "block1_conv1 (Conv2D)        (None, 224, 224, 64)      1792      \n",
            "_________________________________________________________________\n",
            "block1_conv2 (Conv2D)        (None, 224, 224, 64)      36928     \n",
            "_________________________________________________________________\n",
            "block1_pool (MaxPooling2D)   (None, 112, 112, 64)      0         \n",
            "_________________________________________________________________\n",
            "block2_conv1 (Conv2D)        (None, 112, 112, 128)     73856     \n",
            "_________________________________________________________________\n",
            "block2_conv2 (Conv2D)        (None, 112, 112, 128)     147584    \n",
            "_________________________________________________________________\n",
            "block2_pool (MaxPooling2D)   (None, 56, 56, 128)       0         \n",
            "_________________________________________________________________\n",
            "block3_conv1 (Conv2D)        (None, 56, 56, 256)       295168    \n",
            "_________________________________________________________________\n",
            "block3_conv2 (Conv2D)        (None, 56, 56, 256)       590080    \n",
            "_________________________________________________________________\n",
            "block3_conv3 (Conv2D)        (None, 56, 56, 256)       590080    \n",
            "_________________________________________________________________\n",
            "block3_pool (MaxPooling2D)   (None, 28, 28, 256)       0         \n",
            "_________________________________________________________________\n",
            "block4_conv1 (Conv2D)        (None, 28, 28, 512)       1180160   \n",
            "_________________________________________________________________\n",
            "block4_conv2 (Conv2D)        (None, 28, 28, 512)       2359808   \n",
            "_________________________________________________________________\n",
            "block4_conv3 (Conv2D)        (None, 28, 28, 512)       2359808   \n",
            "_________________________________________________________________\n",
            "block4_pool (MaxPooling2D)   (None, 14, 14, 512)       0         \n",
            "_________________________________________________________________\n",
            "block5_conv1 (Conv2D)        (None, 14, 14, 512)       2359808   \n",
            "_________________________________________________________________\n",
            "block5_conv2 (Conv2D)        (None, 14, 14, 512)       2359808   \n",
            "_________________________________________________________________\n",
            "block5_conv3 (Conv2D)        (None, 14, 14, 512)       2359808   \n",
            "_________________________________________________________________\n",
            "block5_pool (MaxPooling2D)   (None, 7, 7, 512)         0         \n",
            "=================================================================\n",
            "Total params: 14,714,688\n",
            "Trainable params: 14,714,688\n",
            "Non-trainable params: 0\n",
            "_________________________________________________________________\n"
          ],
          "name": "stdout"
        }
      ]
    },
    {
      "cell_type": "code",
…
